…
oups, expansion super().__init__() c_ = int(c2 * e) # hidden channels self.cv1 = Conv(c1, c_, 1, 1) self.cv2 = Conv(c_, c2, 3, 1, g=g) self.add = shortcut and c1 == c2 def forward(self, x): return x + self.cv2(self.cv1(x)) if self.add else self.cv2(self.cv1(x)) # Bottleneck\u53c2\u6570\u91cf\u8ba1\u7b97\uff1a(64 * 64 * 1 * 1 + 64*2) + (64 * 64 * 3 * 3 + 64*2) = 41216 # \u4e24\u4e2aBottleneck : 41216 * 2 = 82432 t: 'models.common.C3' np: 115712 (\u53c2\u6570\u91cf) - \u8ba1\u7b97\u65b9\u5f0f\uff1a\u4e0a\u9762 \u8f93\u51fa\u6253\u5370\u60c5\u51b5\uff1a from n params module arguments 0 -1 1 3520 models.common.Conv [3, 32, 6, 2, 2] # [c1, c2, k, s, p] 1 -1 1 18560 models.common.Conv [32, 64, 3, 2] # [c1, c2, k, s] 2 -1 1 18816 models.common.C3 [64, 64, 1] # [c1, c2, n] 3 -1 1 73984 models.common.Conv [64, 128, 3, 2] # [c1, c2, k, s] 4 -1 2 115712 models.common.C3 [128, 128, 2] # [c1, c2, n] n=2 from: -1 # \u542b\u4e49\u662f\u5f53\u524d\u5c42\u7684\u8f93\u5165\u6765\u81ea\u4e0a\u4e00\u5c42\u7684\u8f93\u51fa save: [] # \u56e0\u4e3a\u5f53\u524d\u5c42\u4e0d\u4f1a\u8fdb\u884c\u63a8\u7406\uff0c\u6240\u4ee5\u4e0d\u5fc5\u4fdd\u5b58 layers: [Conv, Conv, C3, Conv, C3] ch: [32, 64, 64, 128, 128] # \u5f53\u524d\u5faa\u73af\u7ed3\u675f\u540e\u7684\u503c 6. \u7b2c6\u5c42
…
, None \"\"\" super().__init__() self.conv = nn.Conv2d(c1, c2, k, s, autopad(k, p), groups=g, bias=False) self.bn = nn.BatchNorm2d(c2) self.act = nn.SiLU() if act is True else (act if isinstance(act, nn.Module) else nn.Identity()) def forward(self, x): return self.act(self.bn(self.conv(x))) def forward_fuse(self, x): return self.act(self.conv(x)) # \u53c2\u6570\u91cf\uff1a 128 * 256 * 3 * 3 + 256 * 2 = 295424 t: 'models.common.Conv' np: 295424 (\u53c2\u6570\u91cf) - \u8ba1\u7b97\u65b9\u5f0f\uff1a\u4e0a\u9762 \u8f93\u51fa\u6253\u5370\u60c5\u51b5\uff1a from n params module arguments 0 -1 1 3520 models.common.Conv [3, 32, 6, 2, 2] # [c1, c2, k, s, p] 1 -1 1 18560 models.common.Conv [32, 64, 3, 2] # [c1, c2, k, s] 2 -1 1 18816 models.common.C3 [64, 64, 1] # [c1, c2, n] 3 -1 1 73984 models.common.Conv [64, 128, 3, 2] # [c1, c2, k, s] 4 -1 2 115712 models.common.C3 [128, 128, 2] # [c1, c2, n] n=2 5 -1 1 295424 models.common.Conv [128, 256, 3, 2] # [c1, c2, k, s] from: -1 # \u542b\u4e49\u662f\u5f53\u524d\u5c42\u7684\u8f93\u5165\u6765\u81ea\u4e0a\u4e00\u5c42\u7684\u8f93\u51fa save: [] # \u56e0\u4e3a\u5f53\u524d\u5c42\u4e0d\u4f1a\u8fdb\u884c\u63a8\u7406\uff0c\u6240\u4ee5\u4e0d\u5fc5\u4fdd\u5b58 layers: [Conv, Conv, C3, Conv, C3, Conv] ch: [32, 64, 64, 128, 128, 256] # \u5f53\u524d\u5faa\u73af\u7ed3\u675f\u540e\u7684\u503c 7. 
…
ansion super().__init__() c_ = int(c2 * e) # hidden channels self.cv1 = Conv(c1, c_, 1, 1) self.cv2 = Conv(c_, c2, 3, 1, g=g) self.add = shortcut and c1 == c2 def forward(self, x): return x + self.cv2(self.cv1(x)) if self.add else self.cv2(self.cv1(x)) # Bottleneck\u53c2\u6570\u91cf\u8ba1\u7b97\uff1a(128 * 128 * 1 * 1 + 128*2) + (128 * 128 * 3 * 3 + 128*2) = 164352 # \u4e24\u4e2aBottleneck : 164352 * 3 = 493056 t: 'models.common.C3' np: 625152 (\u53c2\u6570\u91cf) - \u8ba1\u7b97\u65b9\u5f0f\uff1a\u4e0a\u9762 \u8f93\u51fa\u6253\u5370\u60c5\u51b5\uff1a from n params module arguments 0 -1 1 3520 models.common.Conv [3, 32, 6, 2, 2] # [c1, c2, k, s, p] 1 -1 1 18560 models.common.Conv [32, 64, 3, 2] # [c1, c2, k, s] 2 -1 1 18816 models.common.C3 [64, 64, 1] # [c1, c2, n] 3 -1 1 73984 models.common.Conv [64, 128, 3, 2] # [c1, c2, k, s] 4 -1 2 115712 models.common.C3 [128, 128, 2] # [c1, c2, n] n=2 5 -1 1 295424 models.common.Conv [128, 256, 3, 2] # [c1, c2, k, s] 6 -1 3 625152 models.common.C3 [256, 256, 3] from: -1 # \u542b\u4e49\u662f\u5f53\u524d\u5c42\u7684\u8f93\u5165\u6765\u81ea\u4e0a\u4e00\u5c42\u7684\u8f93\u51fa save: [] # \u56e0\u4e3a\u5f53\u524d\u5c42\u4e0d\u4f1a\u8fdb\u884c\u63a8\u7406\uff0c\u6240\u4ee5\u4e0d\u5fc5\u4fdd\u5b58 layers: [Conv, Conv, C3, Conv, C3, Conv, C3] ch: [32, 64, 64, 128, 128, 256, 256] # \u5f53\u524d\u5faa\u73af\u7ed3\u675f\u540e\u7684\u503c 8. \u7b2c8\u5c
…
None \"\"\" super().__init__() self.conv = nn.Conv2d(c1, c2, k, s, autopad(k, p), groups=g, bias=False) self.bn = nn.BatchNorm2d(c2) self.act = nn.SiLU() if act is True else (act if isinstance(act, nn.Module) else nn.Identity()) def forward(self, x): return self.act(self.bn(self.conv(x))) def forward_fuse(self, x): return self.act(self.conv(x)) # \u53c2\u6570\u91cf\uff1a 256 * 512 * 3 * 3 + 512 * 2 = 1180672 t: 'models.common.Conv' np: 1180672 (\u53c2\u6570\u91cf) - \u8ba1\u7b97\u65b9\u5f0f\uff1a\u4e0a\u9762 \u8f93\u51fa\u6253\u5370\u60c5\u51b5\uff1a from n params module arguments 0 -1 1 3520 models.common.Conv [3, 32, 6, 2, 2] 1 -1 1 18560 models.common.Conv [32, 64, 3, 2] 2 -1 1 18816 models.common.C3 [64, 64, 1] 3 -1 1 73984 models.common.Conv [64, 128, 3, 2] 4 -1 2 115712 models.common.C3 [128, 128, 2] 5 -1 1 295424 models.common.Conv [128, 256, 3, 2] 6 -1 3 625152 models.common.C3 [256, 256, 3] 7 -1 1 1180672 models.common.Conv [256, 512, 3, 2] from: -1 # \u542b\u4e49\u662f\u5f53\u524d\u5c42\u7684\u8f93\u5165\u6765\u81ea\u4e0a\u4e00\u5c42\u7684\u8f93\u51fa save: [] # \u56e0\u4e3a\u5f53\u524d\u5c42\u4e0d\u4f1a\u8fdb\u884c\u63a8\u7406\uff0c\u6240\u4ee5\u4e0d\u5fc5\u4fdd\u5b58 layers: [Conv, Conv, C3, Conv, C3, Conv, C3, Conv] ch: [32, 64, 64, 128, 128, 256, 256, 512] # \u5f53\u524d\u5faa\u73af\u7ed3\u675f\u540e\u7684\u503c 
…
e=0.5): # ch_in, ch_out, shortcut, groups, expansion super().__init__() c_ = int(c2 * e) # hidden channels self.cv1 = Conv(c1, c_, 1, 1) self.cv2 = Conv(c_, c2, 3, 1, g=g) self.add = shortcut and c1 == c2 def forward(self, x): return x + self.cv2(self.cv1(x)) if self.add else self.cv2(self.cv1(x)) # Bottleneck\u53c2\u6570\u91cf\u8ba1\u7b97\uff1a(256 * 256 * 1 * 1 + 256*2) + (256 * 256 * 3 * 3 + 256*2) = 656384 t: 'models.common.C3' np: 1182720 (\u53c2\u6570\u91cf) - \u8ba1\u7b97\u65b9\u5f0f\uff1a\u4e0a\u9762 \u8f93\u51fa\u6253\u5370\u60c5\u51b5\uff1a from n params module arguments 0 -1 1 3520 models.common.Conv [3, 32, 6, 2, 2] 1 -1 1 18560 models.common.Conv [32, 64, 3, 2] 2 -1 1 18816 models.common.C3 [64, 64, 1] 3 -1 1 73984 models.common.Conv [64, 128, 3, 2] 4 -1 2 115712 models.common.C3 [128, 128, 2] 5 -1 1 295424 models.common.Conv [128, 256, 3, 2] 6 -1 3 625152 models.common.C3 [256, 256, 3] 7 -1 1 1180672 models.common.Conv [256, 512, 3, 2] 8 -1 1 1182720 models.common.C3 [512, 512, 1] from: -1 # \u542b\u4e49\u662f\u5f53\u524d\u5c42\u7684\u8f93\u5165\u6765\u81ea\u4e0a\u4e00\u5c42\u7684\u8f93\u51fa save: [] # \u56e0\u4e3a\u5f53\u524d\u5c42\u4e0d\u4f1a\u8fdb\u884c\u63a8\u7406\uff0c\u6240\u4ee5\u4e0d\u5fc5\u4fdd\u5b58 layers: [Conv, Conv, C3, Conv, C3, Conv, C3, Conv, C3] ch: [32, 64, 64, 128, 128, 256, 256, 512, 512] # \u5f53\u524d\u5faa\u73af\u7ed3\u675f\u540e\u7684\
…
v(c_ * 4, c2, 1, 1) self.m = nn.MaxPool2d(kernel_size=k, stride=1, padding=k // 2) def forward(self, x): x = self.cv1(x) with warnings.catch_warnings(): warnings.simplefilter('ignore') # suppress torch 1.9.0 max_pool2d() warning y1 = self.m(x) y2 = self.m(y1) return self.cv2(torch.cat((x, y1, y2, self.m(y2)), 1)) # \u53c2\u6570\u91cf\uff1a(512 * 256 * 1 * 1 + 256 * 2) + (1024 * 512 * 1 * 1 + 512 * 2) = 656896 t: 'models.common.SPPF' np: 656896 (\u53c2\u6570\u91cf) - \u8ba1\u7b97\u65b9\u5f0f\uff1a\u4e0a\u9762 \u8f93\u51fa\u6253\u5370\u60c5\u51b5\uff1a from n params module arguments 0 -1 1 3520 models.common.Conv [3, 32, 6, 2, 2] 1 -1 1 18560 models.common.Conv [32, 64, 3, 2] 2 -1 1 18816 models.common.C3 [64, 64, 1] 3 -1 1 73984 models.common.Conv [64, 128, 3, 2] 4 -1 2 115712 models.common.C3 [128, 128, 2] 5 -1 1 295424 models.common.Conv [128, 256, 3, 2] 6 -1 3 625152 models.common.C3 [256, 256, 3] 7 -1 1 1180672 models.common.Conv [256, 512, 3, 2] 8 -1 1 1182720 models.common.C3 [512, 512, 1] 9 -1 1 656896 models.common.SPPF [512, 512, 5] from: -1 # \u542b\u4e49\u662f\u5f53\u524d\u5c42\u7684\u8f93\u5165\u6765\u81ea\u4e0a\u4e00\u5c42\u7684\u8f93\u51fa save: [] # \u56e0\u4e3a\u5f53\u524d\u5c42\u4e0d\u4f1a\u8fdb\u884c\u63a8\u7406\uff0c\u6240\u4ee5\u4e0d\u5fc5\u4fdd\u5b58 layers: [Conv, Conv, C3, Conv, C3, Conv, C3, Conv, C3, SPPF] ch: [32, 64, 64, 128, 128, 256, 256, 512, 512, 512] # \u5f53\u524d\u5faa\u73af\u7ed3\u675f\u
…
ass Conv(nn.Module): # Standard convolution def __init__(self, c1, c2, k=1, s=1, p=None, g=1, act=True): \"\"\" c1, c2, k, s, p = 512, 256, 1, 1, None \"\"\" super().__init__() self.conv = nn.Conv2d(c1, c2, k, s, autopad(k, p), groups=g, bias=False) self.bn = nn.BatchNorm2d(c2) self.act = nn.SiLU() if act is True else (act if isinstance(act, nn.Module) else nn.Identity()) def forward(self, x): return self.act(self.bn(self.conv(x))) def forward_fuse(self, x): return self.act(self.conv(x)) # \u53c2\u6570\u91cf\uff1a 512 * 256 * 1 * 1 + 256 * 2 = 131584 from n params module arguments 0 -1 1 3520 models.common.Conv [3, 32, 6, 2, 2] 1 -1 1 18560 models.common.Conv [32, 64, 3, 2] 2 -1 1 18816 models.common.C3 [64, 64, 1] 3 -1 1 73984 models.common.Conv [64, 128, 3, 2] 4 -1 2 115712 models.common.C3 [128, 128, 2] 5 -1 1 295424 models.common.Conv [128, 256, 3, 2] 6 -1 3 625152 models.common.C3 [256, 256, 3] 7 -1 1 1180672 models.common.Conv [256, 512, 3, 2] 8 -1 1 1182720 models.common.C3 [512, 512, 1] 9 -1 1 656896 models.common.SPPF [512, 512, 5] 10 -1 1 131584 models.common.Conv [512, 256, 1, 1] # [c1, c2, k, s] ``` ```python from: -1 # \u542b\u4e49\u662f\u5f53\u524d\u5c42\u7684\u8f93\u5165\u6765\u81ea\u4e0a\u4e00\u5c42\u7684\u8f93\u51fa save: [] # \u56e0\u4e3a\u5f53\u524d\u5c42\u4e0d\u4f1a\u8fdb\u884c\u63a8\u7406\uff0c\u6240\u4ee5\u4e0d\u5fc5\u4fdd\u5b58 layers: [Conv, Conv, C3, Conv, C3, Conv, C3, Conv, C3, SPPF, Conv] ch: [32, 64, 64, 128, 128, 256, 256, 512, 512, 512, 256] # \u5f53\u524d\u5faa\u73af\u7ed3\u675f\u540e\u7684\u503c 12. \u7b2c12\u5c42 Upsample\u5c42\u6ca1\u6709\u53c2\u6570\u91cf\uff0c i = 11 f, n, m, args = -1, 1, 'nn.Upsample', ['None', 2, 'nearest'] n = n_ = 1 c1 = 512 # c1\u6ca1\u6709\u53d1\u751f\u53d8\u5316 c2 = ch[f] # 256 t = 'torch.nn.modules.upsampling.Upsample' from n params module arguments 0 -1 1 3520 models.common.Conv [3, 32, 6, 2, 2] 1 -1 1 18560 models.common.Conv [32, 64, 3, 2] 2 -1 1 18816 models.common.C3 [64, 64, 1] 3 -1 1 73984 models.common.Conv [64, 128, 3, 2] 4 -1 2 115712 models.common.C3 [128, 128, 2] 5 -1 1 295424 models.common.Conv [128, 256, 3, 2] 6 -1 3 625152 models.common.C3 [256, 256, 3] 7 -1 1 1180672 models.common.Conv [256, 512, 3, 2] 8 -1 1 1182720 models.common.C3 [512, 512, 1] 9 -1 1 656896 models.common.SPPF [512, 512, 5] 10 -1 1 131584 models.common.Conv [512, 256, 1, 1] 11 -1 1 0 torch.nn.modules.upsampling.Upsample [None, 2, 'nearest'] from: -1 # \u542b\u4e49\u662f\u5f53\u524d\u5c42\u7684\u8f93\u5165\u6765\u81ea\u4e0a\u4e00\u5c42\u7684\u8f93\u51fa save: [] # \u56e0\u4e3a\u5f53\u524d\u5c42\u4e0d\u4f1a\u8fdb\u884c\u63a8\u7406\uff0c\u6240\u4ee5\u4e0d\u5fc5\u4fdd\u5b58 layers: [Conv, Conv, C3, Conv, C3, Conv, C3, Conv, C3, SPPF, Conv, Upsample] ch: [32, 64, 64, 128, 128, 256, 256, 512, 512, 512, 256, 256] # \u5f53\u524d\u5faa\u73af\u7ed3\u675f\u540e\u7684\u503c 13. \u7b2c13\u5c42 Concat\u5c42\u6ca1\u6709\u53c2\u6570 i = 12 f, n, m, args = [[-1, 6], 1, 'Concat', [1]] elif m in Concat: c2 = sum(ch[x] for x in f) = sum(ch[-1], ch[6]) = 512 class Concat(nn.Module): def __init__(self, dimension=1): super().__init__() self.d = dimension def forward(self, x): return torch.cat(x, self.d) from n params module arguments 0 -1 1 3520 models.common.Conv [3, 32, 6, 2, 2] 1 -1 1 18560 models.common.Conv [32, 64, 3, 2] 2 -1 1 18816 models.common.C3 [64, 64, 1] 3 -1 1 73984 models.common.Conv [64, 128, 3, 2] 4 -1 2 115712 models.common.C3 [128, 128, 2] 5 -1 1 295424 models.common.Conv [128, 256, 3, 2] 6 -1 3 625152 models.common.C3 [256, 256, 3] 7 -1 1 1180672 models.common.Conv [256, 512, 3, 2] 8 -1 1 1182720 models.common.C3 [512, 512, 1] 9 -1 1 656896 models.common.SPPF [512, 512, 5] 10 -1 1 131584 models.common.Conv [512, 256, 1, 1] 11 -1 1 0 torch.nn.modules.upsampling.Upsample [None, 2, 'nearest'] 12 [-1, 6] 1 0 models.common.Concat [1] from: [-1, 6] # \u8f93\u5165\u6765\u81ea\u4e0a\u4e00\u5c42\u548c\u7d22\u5f15\u7b2c6\u5c42 save: [6] # \u7b2c\u4e00\u4e2a\u4e0d\u7b49\u4e8e-1\u7684\u503c layers: [Conv, Conv, C3, Conv, C3, Conv, C3, Conv, C3, SPPF, Conv, Upsample, Concat] ch: [32, 64, 64, 128, 128, 256, 256, 512, 512, 512, 256, 256, 512] # \u5f53\u524d\u5faa\u73af\u7ed3\u675f\u540e\u7684\u503c 14. \u7b2c14\u5c42 i = 13 f, n, m, 
…
